…
26/26 [==============================] - 0s 7ms/step - loss: 0.0620 - binary_accuracy: 0.9692 - auc: 0.9976 - val_loss: 0.6254 - val_binary_accuracy: 0.8070 - val_auc: 0.8974
Epoch 25/25
26/26 [==============================] - 0s 8ms/step - loss: 0.0550 - binary_accuracy: 0.9769 - auc: 0.9988 - val_loss: 0.7231 - val_binary_accuracy: 0.7719 - val_auc: 0.8636
1/1 [==============================] - 0s 25ms/step - loss: 0.7010 - binary_accuracy: 0.8571 - auc: 0.8704
Model: "test_model"
_________________________________________________________________
 Layer (type)                Output Shape              Param #
=================================================================
 input (InputLayer)          [(None, 37)]              0
 dense (Dense)               (None, 128)               4864
 dense_1 (Dense)             (None, 128)               16512
 dense_2 (Dense)             (None, 128)               16512
 dense_3 (Dense)             (None, 64)                8256
 dense_4 (Dense)             (None, 64)                4160
 dense_5 (Dense)             (None, 64)                4160
 dense_out (Dense)           (None, 1)                 65
=================================================================
Total params: 54,529
Trainable params: 54,529
Non-trainable params: 0
