…
26/26 [==============================] - 0s 3ms/step - loss: 0.4879 - binary_accuracy: 0.8615 - auc: 0.9310 - val_loss: 0.5824 - val_binary_accuracy: 0.8070 - val_auc: 0.8633
Epoch 25/25
26/26 [==============================] - 0s 2ms/step - loss: 0.1385 - binary_accuracy: 0.9538 - auc: 0.9973 - val_loss: 0.5848 - val_binary_accuracy: 0.8246 - val_auc: 0.8805
1/1 [==============================] - 0s 19ms/step - loss: 0.7164 - binary_accuracy: 0.8095 - auc: 0.8611
Model: "test_model"
_________________________________________________________________
 Layer (type)                Output Shape              Param #
=================================================================
 input (InputLayer)          [(None, 37)]              0
 dense (Dense)               (None, 128)               4864
 dense_1 (Dense)             (None, 128)               16512
 dense_2 (Dense)             (None, 128)               16512
 dense_3 (Dense)             (None, 64)                8256
 dense_4 (Dense)             (None, 64)                4160
 dense_5 (Dense)             (None, 64)                4160
 dense_out (Dense)           (None, 1)                 65
=================================================================
Total params: 54,529
Trainable params: 54,529
Non-trainable params: 0
