…
26/26 [==============================] - 0s 3ms/step - loss: 0.0539 - binary_accuracy: 0.9846 - auc: 0.9990 - val_loss: 0.9333 - val_binary_accuracy: 0.7368 - val_auc: 0.8664
Epoch 25/25
26/26 [==============================] - 0s 3ms/step - loss: 0.0426 - binary_accuracy: 0.9769 - auc: 0.9995 - val_loss: 0.5720 - val_binary_accuracy: 0.7895 - val_auc: 0.9200
1/1 [==============================] - 0s 22ms/step - loss: 1.8126 - binary_accuracy: 0.6667 - auc: 0.6250
Model: "test_model"
_________________________________________________________________
 Layer (type)                Output Shape              Param #
=================================================================
 input (InputLayer)          [(None, 37)]              0
 dense (Dense)               (None, 128)               4864
 dense_1 (Dense)             (None, 128)               16512
 dense_2 (Dense)             (None, 128)               16512
 dense_3 (Dense)             (None, 64)                8256
 dense_4 (Dense)             (None, 64)                4160
 dense_5 (Dense)             (None, 64)                4160
 dense_out (Dense)           (None, 1)                 65
=================================================================
Total params: 54,529
Trainable params: 54,529
Non-trainable params: 0
