…
26/26 [==============================] - 0s 3ms/step - loss: 0.0601 - binary_accuracy: 0.9769 - auc: 0.9987 - val_loss: 0.6133 - val_binary_accuracy: 0.8246 - val_auc: 0.8929
Epoch 25/25
26/26 [==============================] - 0s 3ms/step - loss: 0.0454 - binary_accuracy: 0.9846 - auc: 0.9993 - val_loss: 0.7686 - val_binary_accuracy: 0.8246 - val_auc: 0.8935
1/1 [==============================] - 0s 5ms/step - loss: 1.5341 - binary_accuracy: 0.8095 - auc: 0.8462
Model: "test_model"
_________________________________________________________________
 Layer (type)                Output Shape              Param #
=================================================================
 input (InputLayer)          [(None, 37)]              0
 dense (Dense)               (None, 128)               4864
 dense_1 (Dense)             (None, 128)               16512
 dense_2 (Dense)             (None, 128)               16512
 dense_3 (Dense)             (None, 64)                8256
 dense_4 (Dense)             (None, 64)                4160
 dense_5 (Dense)             (None, 64)                4160
 dense_out (Dense)           (None, 1)                 65
=================================================================
Total params: 54,529
Trainable params: 54,529
Non-trainable params: 0
