…
26/26 [==============================] - 0s 2ms/step - loss: 0.2013 - binary_accuracy: 0.9154 - auc: 0.9756 - val_loss: 0.7762 - val_binary_accuracy: 0.8596 - val_auc: 0.8898
Epoch 25/25
26/26 [==============================] - 0s 3ms/step - loss: 0.1074 - binary_accuracy: 0.9538 - auc: 0.9959 - val_loss: 0.9988 - val_binary_accuracy: 0.7895 - val_auc: 0.8658
1/1 [==============================] - 0s 23ms/step - loss: 0.6231 - binary_accuracy: 0.8095 - auc: 0.9318
Model: "test_model"
_________________________________________________________________
 Layer (type)                Output Shape              Param #
=================================================================
 input (InputLayer)          [(None, 37)]              0
 dense (Dense)               (None, 128)               4864
 dense_1 (Dense)             (None, 128)               16512
 dense_2 (Dense)             (None, 128)               16512
 dense_3 (Dense)             (None, 64)                8256
 dense_4 (Dense)             (None, 64)                4160
 dense_5 (Dense)             (None, 64)                4160
 dense_out (Dense)           (None, 1)                 65
=================================================================
Total params: 54,529
Trainable params: 54,529
Non-trainable params: 0
